mnist_lenet5.pth (torch_old, 248617 bytes, 10 tensors)

conv.0.weight f4 [6, 1, 5, 5]
0	0x3da4518b	0.080233656
1	0x3e07f4dc	0.13277
2	0x3e073be7	0.13206445
3	0xbe3a13f3	-0.18171673
4	0xbdd15139	-0.1022057
5	0xbe19a942	-0.15005973
6	0x3d66f561	0.056386355
7	0x3e8772e5	0.26454845
8	0x3ddfb10f	0.10922443
9	0xbe3d1cf4	-0.18468076
10	0x3db8e1d6	0.0902745
11	0xbd72b274	-0.059252217
12	0x3e9c395a	0.30512506
13	0x3d69f025	0.057113785
14	0xbe647bf1	-0.22312905
15	0xbe99ebed	-0.3006281
16	0xbde2ebd2	-0.110801354
17	0x3e466e91	0.19378115
18	0x3d63c522	0.055607922
19	0xbd28e735	-0.04123612
20	0xbe86da15	-0.26338258
21	0xbe53e190	-0.20691514
22	0x3de24440	0.11048174
23	0x3e31bbb3	0.17356758
24	0x3d8ac19d	0.0677521
25	0x3e9d435b	0.3071545
26	0xbcdb5efc	-0.02677869
27	0x3e025f56	0.1273168
28	0xbe516c9e	-0.2045159
29	0xbd8197be	-0.06327771
30	0x3e0f156d	0.13973017
31	0x3dd030ec	0.10165581
32	0xbd466af0	-0.048441827
33	0xbc838180	-0.016052961
34	0xbe93dfe1	-0.28881744
35	0x3eb93e01	0.36180118
36	0x3d769b24	0.060206547
37	0xbd869a92	-0.06572451
38	0xbea8f328	-0.32998013
39	0xbeaf7673	-0.34270057
40	0x3ec39311	0.3819814
41	0x3eab5924	0.33466446
42	0xbdee6758	-0.11640805
43	0xbe95c6ec	-0.29253328
44	0x3d0f6a42	0.035013445
45	0x3ea907d8	0.33013797
46	0x3ec47131	0.38367608
47	0xbd79604b	-0.060882848
48	0xbe81a02a	-0.25317508
49	0xbe3f0080	-0.18652534
50	0x3e85c403	0.26126108
51	0x3e84d7c7	0.25945875
52	0x3eee000f	0.4648442
53	0x3ef7c953	0.48395786
54	0x3ee5e678	0.44902396
55	0x3e3929ce	0.18082353
56	0x3e889fe5	0.2668449
57	0x3ea1fc35	0.3163773
58	0x3e8acc37	0.2710893
59	0x3e168837	0.147004
60	0xbcdeb3aa	-0.02718528
61	0xbe17409b	-0.14770739
62	0xbe9dcfda	-0.3082264
63	0xbea3ece3	-0.32016668
64	0xbe842ed1	-0.25816968
65	0xbea2b494	-0.31778395
66	0xbea7d84a	-0.32782203
67	0xbe6cdf50	-0.23132062
68	0xbe084ff2	-0.13311747
69	0xbdbd952e	-0.092569694
70	0xbdc272d4	-0.09494558
71	0xbdb464d8	-0.08808297
72	0xbe972e0c	-0.29527318
73	0xbe8d3541	-0.27579692
74	0x3cb1280d	0.021625543
75	0xbe0f1d69	-0.13976063
76	0x3e10fe5c	0.1415953
77	0x3d3fb743	0.04680563
78	0x3ea6b2b7	0.32558224
79	0x3ed30cac	0.41220605
80	0xbe95ea3a	-0.29280263
81	0xbd897d47	-0.06713348
82	0xbe3499bb	-0.17636769
83	0xbe9aab71	-0.30208924
84	0x3e098162	0.13428262
85	0xbed3617d	-0.41285315
86	0xbec0fd21	-0.37693122
87	0xbed3877a	-0.41314298
88	0xbe1b083a	-0.15139857
89	0xbebd13f4	-0.36929286
90	0xbeae1901	-0.3400345
91	0xbe7cfd2a	-0.2470595
92	0xbe6323a6	-0.22181568
93	0xbedb83d4	-0.42874014
94	0xbebf5881	-0.3737221
95	0xbe157b49	-0.14597811
96	0xbe51e602	-0.20497897
97	0xbea8069f	-0.32817551
98	0xbe94e8c9	-0.2908385
99	0x3da8c930	0.082414985
100	0x3d557ed6	0.052122913
101	0xbe79b8ed	-0.2438695
102	0xbe9a00d2	-0.3007875
103	0xbec75983	-0.3893548
104	0xbce2d16c	-0.02768775
105	0xbe02244a	-0.12709156
106	0xbee2bad0	-0.44283152
107	0xbefb088f	-0.49029967
108	0xbec9ff7c	-0.39452732
109	0xbf01b89a	-0.50672305
110	0xbe692f7a	-0.22772017
111	0xbecf6145	-0.40503898
112	0xbec57e65	-0.38572994
113	0xbf164f70	-0.5871496
114	0xbf2011de	-0.62527263
115	0xbe801615	-0.25016847
116	0xbe9ceaa8	-0.3064778
117	0xbf00041f	-0.5000629
118	0xbefe3d21	-0.49656013
119	0xbee06550	-0.43827295
120	0xbdd1f9a3	-0.102526926
121	0xbe0f1dfa	-0.13976279
122	0xbe582f04	-0.21111685
123	0xbe96a0f4	-0.29419672
124	0xbe44b7bb	-0.19210713
125	0xbdfdc672	-0.12391366
126	0x3e429da5	0.19005449
127	0x3e85c86d	0.26129475
128	0x3e932cbc	0.28745067
129	0xbe79711b	-0.24359553
130	0x3d04388c	0.03228049
131	0xbe45fcb6	-0.19334683
132	0x3d00c6ea	0.0314397
133	0x3e8df034	0.27722323
134	0xbe0124f2	-0.1261175
135	0xbe548651	-0.20754363
136	0xbe1d68cc	-0.15372008
137	0x3dd86621	0.105663545
138	0x3e86cd4f	0.26328513
139	0x3e0470c5	0.12933643
140	0x3b4d56c5	0.0031332236
141	0xbc817ddf	-0.01580709
142	0xbc91b255	-0.01778523
143	0x3e3eea49	0.1864406
144	0x3e937bd2	0.28805405
145	0x3e0c5e1b	0.13707773
146	0x3e22190d	0.15829869
147	0xbe275a73	-0.16343097
148	0xbd41b787	-0.047294166
149	0x3dfa1897	0.122117214

conv.0.bias f4 [6]
0	0xbc0c08ea	-0.008547047
1	0x3e847ec4	0.25877964
2	0x3e4a8716	0.19778094
3	0x3e747836	0.23873982
4	0x3e9b3300	0.30312347
5	0x3e0e546d	0.13899393

conv.3.weight f4 [16, 6, 5, 5]
0	0xbd7c8594	-0.061650828
1	0xbc9ee7e4	-0.019397683
2	0x3d01d960	0.031701446
3	0xbda646bc	-0.0811896
4	0x3d9ae9ba	0.07564111
5	0x3d3c5426	0.045978688
6	0x3c94ea7a	0.018178213
7	0x3db8c10b	0.09021195
8	0xbdcbeb45	-0.099569835
9	0xbd3cab73	-0.046061944
10	0xbd28ecc4	-0.041241422
11	0x3ca4ccfd	0.020117277
12	0x3d325068	0.043533713
13	0x3d8282d1	0.063726075
14	0xbb07a8c9	-0.002069997
15	0xbc956aba	-0.018239368
16	0xbccc5539	-0.024942981
17	0x3dec6a16	0.11543672
18	0x3d03b8df	0.03215873
19	0xbd20fa53	-0.039301228
20	0xbd46b63a	-0.04851363
21	0xbc91dfbc	-0.01780688
22	0x3d44af7a	0.04801891
23	0x3dbcec6e	0.09224783
24	0x3c87e719	0.016589688
25	0x3b173f3c	0.0023078462
26	0xbbfa4600	-0.007637739
27	0x3de67d38	0.11254352
28	0x3df627ba	0.12019296
29	0x3ba0d896	0.0049086316
30	0xbb426ee4	-0.0029668147
31	0x3b9a1073	0.004701668
32	0x3e158bb5	0.14604075
33	0x3e073234	0.13202745
34	0xbd0eab61	-0.03483141
35	0xbdc90c21	-0.098167665
36	0x3d3309aa	0.04371039
37	0x3de36453	0.1110312
38	0x3e41c460	0.18922567
39	0xbc83a532	-0.016069982
40	0xbd299537	-0.041402068
41	0xbd5c2994	-0.05375059
42	0x3daff219	0.08591098
43	0x3db0e781	0.08637906
44	0x3dc7bca5	0.09752778
45	0xbd4924d2	-0.04910738
46	0xbd338ab7	-0.04383346
47	0xbbdc3780	-0.0067204833
48	0x3e1bde18	0.15221441
49	0x3d93dd27	0.07219916
50	0xbd0d51f8	-0.034502
51	0xbcc51e0f	-0.024062185
52	0x3d230ee9	0.03980914
53	0x3d91b743	0.071150325
54	0x3de62289	0.11237056
55	0x3d4d223a	0.05008147
56	0xbda0a2c5	-0.07843546
57	0xbdb37bf9	-0.0876388
58	0xbc5c9a4e	-0.0134645235
59	0x3ddc4a1d	0.107563235
60	0x3d8d0c2f	0.068870895
61	0xbdc7a8e6	-0.09749012
62	0xbd226db0	-0.039655387
63	0xbd613d8a	-0.05499033
64	0xbcd35c51	-0.025800856
65	0x3ce64b87	0.028112186
66	0xbda7b805	-0.08189396
67	0xbd1292cf	-0.03578454
68	0xbdda21f8	-0.1065101
69	0xbd9c2b62	-0.07625462
70	0x3ca0975d	0.019603426
71	0x3d103e00	0.035215378
72	0x3def7361	0.11691929
73	0xbc7fee8d	-0.01562084
74	0x3ba6cb69	0.0050901663
75	0x3dc179d6	0.094470665
76	0x3cc7486a	0.024326522
77	0xbd90eebd	-0.07076786
78	0xbba3010b	-0.0049744896
79	0x3d2f721a	0.042833425
80	0xbdb8491a	-0.08998318
81	0xbde6e119	-0.11273403
82	0xbdf0cb0a	-0.11757477
83	0x3dc98660	0.09840083
84	0x3cc02080	0.023452997
85	0x3ca4e949	0.02013077
86	0xbd47669d	-0.048681844
87	0xbe282986	-0.1642209
88	0xbdd38f7b	-0.10330101
89	0x3e13d005	0.14434822
90	0x3d5d46ea	0.054022707
91	0x3d5e79fc	0.054315552
92	0xbd068307	-0.0328398
93	0xbe231192	-0.15924671
94	0x3c17df61	0.009269566
95	0xbc6e1831	-0.014532135
96	0x3e16c181	0.14722253
97	0xbc625194	-0.013813395
98	0x3bb8d12a	0.0056401687
99	0x3d8a7ef9	0.06762499
100	0x3deae1b8	0.11468834
101	0xbd26c8ab	-0.040718716
102	0xbcdb0adc	-0.026738577
103	0xbcae317c	-0.02126383
104	0x3e1381e8	0.14405024
105	0x3d10bbf9	0.035335515
106	0xbceb223b	-0.028702846
107	0xbe13ee74	-0.14446431
108	0x3e04f29e	0.12983176
109	0x3de44c31	0.11147345
110	0xbc86bd83	-0.016447788
111	0xbe04237e	-0.12904164
112	0xbe58aaf1	-0.21158959
113	0x3dd21eba	0.10259767
114	0x3e02bd01	0.12767412
115	0x3d0a3600	0.033742905
116	0xbd6daa90	-0.05802399
117	0xbe7ebb7b	-0.24876206
118	0xbe0c7968	-0.13718188
119	0xbcbf658a	-0.023363847
120	0x3d92c02b	0.071655594
121	0x3e35abb9	0.17741288
122	0xbdf77753	-0.12083306
123	0xbc83a751	-0.016070994
124	0x3d85deb5	0.065366186
125	0xbcc57c4e	-0.024107125
126	0xbd8c37f6	-0.06846611
127	0xbd166f15	-0.03672703
128	0x3d8dcd16	0.06923883
129	0x3d5912cb	0.052996438
130	0x3dd75542	0.105143085
131	0x3d738598	0.059453577
132	0x3bf54e7e	0.0074861636
133	0xbd9b0747	-0.075697474
134	0xbdbafc1d	-0.09130118
135	0x3d8292d1	0.06375659
136	0x3e09ea29	0.13468231
137	0x3d8c3d9a	0.06847687
138	0xbdc31cee	-0.09527002
139	0xbdaa77fe	-0.08323668
140	0x3d467336	0.048449717
141	0x3e26fba9	0.16306938
142	0x3de94527	0.11390143
143	0xbd9685b6	-0.07349722
144	0xbd5cd241	-0.05391145
145	0xbdb490a8	-0.088166535
146	0xbd0b2a40	-0.03397584
147	0x3da72406	0.08161168
148	0x3d86b193	0.06576838
149	0xbc2bba17	-0.010481379
150	0xbd1be2a7	-0.03805795
151	0xbc886ec4	-0.01665438
152	0x3ce27a60	0.027646244
153	0x3c825941	0.0159117
154	0xbd940a73	-0.072285555
155	0xbd4e61b5	-0.05038615
156	0xbd6f92c6	-0.058489583
157	0xbdbd8120	-0.09253144
158	0xbd9a6568	-0.07538873
159	0xbd955ff0	-0.07293689
160	0xbd7f47d7	-0.06232437
161	0xbcc017c7	-0.023448838
162	0xbd7f262d	-0.062292267
163	0xbd92db32	-0.071707144
164	0x3cbe6376	0.023240786
165	0xbd5c9776	-0.053855382
166	0x3d404e4c	0.04694967
167	0xbce4d6d2	-0.027934466
168	0x3bef4ed7	0.0073030996
169	0xbd1f0483	-0.038822662
170	0x3d142360	0.03616655
171	0xbd87f63e	-0.06638764
172	0xbd0f3d2d	-0.03497045
173	0xbc543ac5	-0.012953465
174	0x3d469a07	0.048486736
175	0x3cc03120	0.023460925
176	0xbd4d3261	-0.050096873
177	0xbdac4083	-0.08410742
178	0x3cc6aeee	0.024253335
179	0xbdbeb0d1	-0.09311069
180	0x3cd60582	0.026125673
181	0xbc400599	-0.011720085
182	0xbdb36bcf	-0.08760797
183	0x3c993f3a	0.018706907
184	0x3c8d6691	0.017260822
185	0x3caae264	0.020859905
186	0x3cea63d6	0.028612059
187	0x3bcd27be	0.006260841
188	0x3c33d701	0.010976554
189	0x3c42fa80	0.011900544
190	0x3d0ffab4	0.0351512
191	0xbd4d787f	-0.050163742
192	0xbd6fd192	-0.05854947
193	0xbddebfa1	-0.10876394
194	0xbd3ef074	-0.046616033
195	0x3ba6c58a	0.0050894665
196	0x3cb05f26	0.021529745
197	0x3d9f2694	0.0777103
198	0xbd85e059	-0.065369315
199	0xbd954a78	-0.072895944
200	0x3d738e1e	0.059461705
201	0x3c895098	0.016762063
202	0x3ddc423e	0.10754822
203	0x3d99447b	0.07483765
204	0x3d10c35c	0.03534256
205	0xbd8115a4	-0.06302956
206	0xbb0c4c52	-0.0021407795
207	0xbd671f91	-0.05642659
208	0x3d074221	0.03302205
209	0x3d6eb995	0.058282454
210	0x3df299a3	0.1184571
211	0xbd62c230	-0.055360973
212	0x3d26c0c2	0.040711172
213	0xbd111cda	-0.035427906
214	0xbc8ccf86	-0.017188799
215	0x3e20586d	0.15658732
216	0x3db45cdc	0.08806774
217	0x3e656cb9	0.22404756
218	0x3dd10fac	0.10208067
219	0x3dc91ab9	0.0981955
220	0x3d79e555	0.061009724
221	0xbd352002	-0.04421998
222	0x3dd6c3de	0.104865775
223	0x3cda6407	0.026659025
224	0x3ddcd149	0.107821055
225	0x3dc3a157	0.095522575
226	0x3e1c5860	0.15268087
227	0x3dbc8b79	0.0920629
228	0x3dceab07	0.100912146
229	0x3ca92a08	0.020649925
230	0x3da6e3d5	0.08148924
231	0xbb037864	-0.0020060772
232	0x3d805001	0.062652595
233	0xbc89f9c5	-0.016842732
234	0x3d41b8cb	0.047295373
235	0xbe083c93	-0.13304357
236	0xbd94932b	-0.072546326
237	0xbdd4b0f9	-0.10385317
238	0x3d245c4d	0.040127087
239	0xbd95ed0e	-0.07320605
240	0x3d2d2f44	0.042281404
241	0x3be52449	0.006992851
242	0x3da36da6	0.07979898
243	0xbc39763b	-0.011319692
244	0x3c8d3b66	0.017240237
245	0xbd9e0253	-0.07715287
246	0xbdb802e0	-0.08984923
247	0x3d69a42f	0.057041343
248	0x3c6a3389	0.0142945135
249	0xbd7aa988	-0.061196834
250	0x3dbc1df5	0.09185401
251	0x3e1d50e5	0.1536289
252	0x3e2e3b97	0.17014919
253	0x3e0b047b	0.13575928
254	0x3def50d6	0.1168534
255	0x3c266cfd	0.010157821

conv.3.bias f4 [16]
0	0x3d8e65da	0.069530204
1	0x3d29cdf6	0.041456185
2	0x3dbdaa6b	0.0926102
3	0x3da2a13e	0.07940911
4	0xbc7ac6fe	-0.0153062325
5	0x3ce43c66	0.027860831
6	0x3d5acfc4	0.053420797
7	0x3c11f39f	0.008908181
8	0x3da96864	0.08271864
9	0xbb9d51c9	-0.0048010093
10	0xbd507b36	-0.050898753
11	0x3d9bd680	0.07609272
12	0x3d5bf442	0.05369974
13	0x3cf5f788	0.030025259
14	0xbc6d5865	-0.014486407
15	0xbd8f7ea5	-0.070065774

fc.0.weight f4 [120, 400]
0	0x3cdec168	0.027191833
1	0x3b5ab271	0.003337052
2	0xbd4b5893	-0.049645018
3	0x3d0c5cc9	0.034268174
4	0xbcbfb60e	-0.02340224
5	0x3caa9d91	0.020827087
6	0x3c3e5ae4	0.01161835
7	0xbd3decdd	-0.04636847
8	0xbc470710	-0.01214768
9	0x3d38cfbd	0.04511999
10	0xbd42edb9	-0.04758999
11	0xbc948a02	-0.018132214
12	0x3c2df88e	0.010618342
13	0xbd2855b6	-0.041097365
14	0xbcf1a4c9	-0.029497521
15	0xbd4c4417	-0.049869623
16	0xbcf4282e	-0.029804315
17	0xbcdd6813	-0.027027166
18	0x3c4b7f80	0.012420535
19	0xbd07e21a	-0.03317461
20	0xbccf4adf	-0.025304256
21	0xbb4b934e	-0.0031063142
22	0xbd259be7	-0.040431883
23	0xbc514566	-0.0127728935
24	0x3c2e8b35	0.010653307
25	0xbc08676d	-0.00832544
26	0xbcead2f1	-0.028665038
27	0x3c2c6663	0.010522458
28	0xbd2bf8fd	-0.0419855
29	0xbd333c7d	-0.043758858
30	0xbd256d8a	-0.040387668
31	0xbd138b62	-0.036021598
32	0x3c471377	0.012150637
33	0xbd16158f	-0.036641654
34	0x3c56909e	0.013096003
35	0x3d182cb0	0.037151992
36	0x3bddc3f9	0.0067677465
37	0x3d35e05f	0.04440343
38	0xbcc03cde	-0.023466524
39	0x3d443705	0.047904033
40	0x3d1f9a7a	0.03896568
41	0x3cefa6a2	0.029254261
42	0x3c5abac7	0.013350195
43	0xbcc0e3fe	-0.023546215
44	0xbc4d1cb4	-0.01251905
45	0xbba97033	-0.005170846
46	0x3d4b4601	0.049627308
47	0xbd3829d5	-0.04496177
48	0xbd253700	-0.040335655
49	0xbd3cdc13	-0.046108317
50	0x3d106767	0.035254862
51	0xbc1d1023	-0.009586367
52	0x3d16e6e0	0.036841273
53	0x3bd4edb8	0.006498065
54	0x3b6f3b64	0.0036503905
55	0xbb58a331	-0.0033056254
56	0xbcfb29b8	-0.030659541
57	0xbd06050c	-0.032719657
58	0x3d06365b	0.03276668
59	0xbbfd6de7	-0.0077340486
60	0x3cdc3cfc	0.026884548
61	0x3ccc0b1f	0.024907647
62	0xbd2046f9	-0.039130185
63	0xbd39cb5e	-0.04535996
64	0xbaa16d3f	-0.0012315883
65	0xbc4ec46f	-0.012620076
66	0xbd39ae33	-0.045332145
67	0xbcd05218	-0.02542977
68	0xbd1d077a	-0.03833721
69	0xbc74fe37	-0.014953188
70	0xbd0ac259	-0.03387675
71	0x3d211d56	0.039334618
72	0x3d0d6a79	0.03452537
73	0x3c947c29	0.01812561
74	0xbd15620c	-0.036470458
75	0x3d2f11c9	0.04274157
76	0xbc465e88	-0.012107499
77	0x3d3aa2d5	0.045565445
78	0x3cc2c3a6	0.023774933
79	0xbd033ec4	-0.03204228
80	0xbd3991c3	-0.045305025
81	0x3b80226e	0.0039103543
82	0x3d0dc341	0.034610037
83	0xbb9bffae	-0.004760704
84	0xbd0bce00	-0.034132004
85	0xbd18efdb	-0.03733812
86	0x3d23cacf	0.039988335
87	0xba6735b3	-0.00088199525
88	0xbcdc7afd	-0.026914114
89	0x3d12f3bf	0.035876986
90	0x3b9375d0	0.0045001283
91	0xbd1c0fd0	-0.038101017
92	0xbd436efb	-0.04771326
93	0xbd08214f	-0.03323489
94	0xbb67ad00	-0.0035350919
95	0x3d4a6a8d	0.04941802
96	0x3ce54a21	0.027989449
97	0x3cb0caf2	0.021581147
98	0x3c0b4458	0.008500181
99	0x3d27ed83	0.040997993
100	0xbc710a0d	-0.014711869
101	0x3d24279b	0.040076833
102	0x3c636274	0.0138784535
103	0x3d117dc7	0.03552034
104	0x3c5b62b6	0.013390234
105	0x3bfd5512	0.0077310884
106	0xbb186a2f	-0.002325665
107	0xbba9dabe	-0.005183547
108	0xbb93ae6a	-0.0045068758
109	0x3cb4f1e4	0.022087999
110	0x3d2aaa63	0.0416664
111	0xbc7863ca	-0.01516051
112	0x3d234e2a	0.039869465
113	0xbc99b87f	-0.018764732
114	0x3d49f0ce	0.049301915
115	0x3ccb64f6	0.024828415
116	0x3c8791d2	0.016549025
117	0xbd060090	-0.03271538
118	0x3a825438	0.0009943312
119	0x3cdc0c75	0.026861409
120	0xbd2e9395	-0.042621214
121	0xbc9ac291	-0.018891605
122	0x3d44e329	0.0480682
123	0xbc05b5d4	-0.008161027
124	0xbc2bb731	-0.010480688
125	0x3d2b5c3c	0.04183601
126	0x3d0f07b0	0.03491944
127	0x3cc35d0c	0.02384808
128	0xbcae8666	-0.02130432
129	0xbd3c07fb	-0.04590605
130	0xbcc0d516	-0.023539107
131	0xbc47bf98	-0.012191676
132	0xbd2e7472	-0.04259152
133	0xbd4d6007	-0.050140407
134	0xbd141edb	-0.03616224
135	0xbb2c41fb	-0.0026284445
136	0x3c80e1e5	0.015732715
137	0xbcd2cb79	-0.025731789
138	0x3ce27717	0.027644677
139	0xbd03ff62	-0.032225974
140	0xbd286558	-0.041112274
141	0xbcf37019	-0.029716538
142	0x3cbcbc17	0.023038907
143	0xbcdf7087	-0.027275337
144	0xbc863fc3	-0.016387826
145	0x3cee6290	0.029099733
146	0xbd185af2	-0.037196107
147	0x3d201a3f	0.03908753
148	0x3c703c9f	0.014662891
149	0xbb8871fb	-0.004163978
150	0xbbe5d1de	-0.0070135435
151	0xbacfa207	-0.0015841135
152	0x3d03e657	0.03220209
153	0xbce3fe80	-0.027831316
154	0x3ba78971	0.00511282
155	0xbd047134	-0.03233452
156	0xbc614128	-0.013748445
157	0xbd1f4558	-0.03888449
158	0xbd3bcf1f	-0.045851823
159	0xbd2fedb8	-0.042951316
160	0xbd1c1ff8	-0.038116425
161	0xbc16d2c3	-0.009205523
162	0x3c643b97	0.013930223
163	0x3c9a0148	0.01879944
164	0x3d416c37	0.047222342
165	0xbd47c74f	-0.04877406
166	0x3cf6ce97	0.030127807
167	0x3d311d6d	0.043240953
168	0xbc63e9c2	-0.013910713
169	0xbd4aeae2	-0.049540408
170	0xbd23bd4d	-0.039975453
171	0x3c9ae642	0.018908624
172	0xbd1eadec	-0.038740084
173	0xbc966f08	-0.01836349
174	0x3bfd53da	0.007730943
175	0x3ca3473e	0.019931432
176	0xbcdb20ca	-0.026749033
177	0xbcda0b65	-0.026616761
178	0x3c332339	0.010933691
179	0xbc85cb70	-0.016332358
180	0x3d214db5	0.039380748
181	0xbd0b2c72	-0.033977933
182	0xbc7e5b00	-0.015524626
183	0x3d2afcae	0.04174488
184	0xbcf5e0ad	-0.03001436
185	0x3d1d1433	0.03834934
186	0xb973fdda	-0.00023268853
187	0xbcf695bf	-0.030100701
188	0xbd2787e9	-0.0409011
189	0xbd2b396e	-0.041802816
190	0xbcbddb4f	-0.023175864
191	0xbc1c9197	-0.009556196
192	0x3cace9cb	0.021107575
193	0x3c796a24	0.01522306
194	0xbca93755	-0.020656267
195	0xbc9d6abd	-0.019215936
196	0xbcc2d8c7	-0.023785008
197	0x3d29c33d	0.04144596
198	0xbd297cea	-0.041378893
199	0x3d279b14	0.04091938
200	0x3d0a4302	0.03375531
201	0x3d485c8d	0.04891639
202	0xbd44ea55	-0.04807504
203	0x3c7f2700	0.015573263
204	0xbca2c8cf	-0.019871144
205	0x3bd647a1	0.0065393005
206	0x3c93a176	0.018021327
207	0xbd45c325	-0.048281807
208	0x3d47b7b0	0.048759162
209	0xbd0535f8	-0.03252217
210	0xbbb6f73f	-0.0055836732
211	0x3c8256e5	0.015910575
212	0x3b85e2e6	0.0040858863
213	0xbd15f22f	-0.036607917
214	0xbcd21df7	-0.025649054
215	0x3c382c20	0.011240989
216	0x3bb794a0	0.0056024343
217	0x3d1e3f4b	0.03863458
218	0xbd001f7d	-0.03128003
219	0xbd01415d	-0.031556476
220	0x3c1dd3e6	0.00963304
221	0xbd046de9	-0.03233138
222	0xbd037239	-0.032091353
223	0xbd1ff9bf	-0.039056536
224	0xbbe397a2	-0.0069455663
225	0x3c90134e	0.01758733
226	0x3d1ae58d	0.037816573
227	0x3d2d8b00	0.04236889
228	0xbc6f1d4c	-0.014594387
229	0x3d11aa2d	0.035562683
230	0xbd150466	-0.036381148
231	0xbc172746	-0.009225672
232	0x3c5080b5	0.012725999
233	0xbd4961cc	-0.049165532
234	0x3cd1c399	0.025605964
235	0x3d11213f	0.035432097
236	0xbce6a2bf	-0.028153775
237	0x3c4f2062	0.012641998
238	0x3c1e2caa	0.009654203
239	0x3d1cedda	0.03831277
240	0xbd051945	-0.032494802
241	0xbd43a7e1	-0.047767524
242	0xbce40103	-0.027832514
243	0xbd286643	-0.04111315
244	0x3c730ff3	0.014835346
245	0x3d33198f	0.043725546
246	0xbb1f5ba7	-0.0024316104
247	0xbc808201	-0.01568699
248	0xbc2a335f	-0.010388224
249	0x3cd8bab2	0.02645621
250	0xbb154092	-0.0022774083
251	0xbca8654a	-0.02055611
252	0x3cd02b5c	0.0254113
253	0xbbccb710	-0.0062474087
254	0xbc27bb6c	-0.010237556
255	0x3d3fc522	0.04681886

fc.0.bias f4 [120]
0	0x3d0cdff7	0.034393277
1	0xbc13bebc	-0.009017643
2	0xbc5fa12c	-0.013649266
3	0xbc10e4f8	-0.008843653
4	0xbcfea29c	-0.031083398
5	0xbd1be9a9	-0.038064633
6	0xbae10f14	-0.0017170631
7	0xbcd470c3	-0.025932675
8	0xbcda7621	-0.026667656
9	0xbd0803d7	-0.033206787
10	0x3be059e3	0.006846653
11	0xbd207ee0	-0.039183497
12	0x3c237de5	0.009978746
13	0x3b8ed74b	0.004359161
14	0xbd34be4f	-0.044126805
15	0x3d08c5ac	0.03339164
16	0x3cbb861e	0.0228911
17	0xbd3c0dad	-0.04591148
18	0xbd22686b	-0.039650362
19	0x3c49f2af	0.012325927
20	0xbd3c90fd	-0.04603671
21	0xbd276204	-0.04086496
22	0xbd37ec79	-0.044903252
23	0xbd0bda5d	-0.034143794
24	0xbc982b1a	-0.01857524
25	0xbcf63e43	-0.030058986
26	0x3c80ea6c	0.015736781
27	0x3b24c186	0.0025139763
28	0x3c26b4ac	0.0101749115
29	0x3ca3f21e	0.020012911
30	0xbd040d5c	-0.032239303
31	0xbbf823eb	-0.007572641
32	0xbd2e7a58	-0.042597145
33	0x3cc4ce5c	0.024024181
34	0xbd2b5c28	-0.041835934
35	0x3b85c3a1	0.0040821587
36	0xbc7afa0c	-0.015318405
37	0xbcae6d46	-0.02129234
38	0xbd16a100	-0.036774635
39	0x3d331eb6	0.04373046
40	0xbc6dd23d	-0.014515457
41	0x3d0b6e77	0.034040894
42	0xbbc517b8	-0.0060147904
43	0x3ceb2458	0.028703853
44	0x3d1fd768	0.039023787
45	0xbd2170be	-0.03941416
46	0xbd13b0f2	-0.03605742
47	0xbd4ea6eb	-0.050452154
48	0x3ce7accf	0.028280644
49	0x3b001b5e	0.0019547562
50	0xbd2427a0	-0.04007685
51	0x3ca851ad	0.020546759
52	0x3d173d58	0.036923736
53	0x3c4151e2	0.011799308
54	0xbc8da14c	-0.017288826
55	0x3d4671bb	0.048448306
56	0xbd1cb9de	-0.038263194
57	0xbce78a0f	-0.028264074
58	0xbc2f9d64	-0.010718677
59	0x3b9cd3a0	0.00478597
60	0x3cacefd5	0.021110455
61	0x3b26f2fe	0.0025474424
62	0xba98cb0e	-0.0011657195
63	0x3cc62ae6	0.024190377
64	0x3ca77c30	0.02044496
65	0x3cfe7118	0.031059787
66	0xbc5c7254	-0.013454992
67	0xbc849271	-0.01618311
68	0xbcf71702	-0.030162338
69	0xbcb1fd7d	-0.021727318
70	0xbba0a999	-0.00490303
71	0x3ba7e1fa	0.005123374
72	0xbc94200b	-0.018081686
73	0x3cb37a26	0.02190883
74	0x3c4573c4	0.012051526
75	0x3c20f8c9	0.00982494
76	0x3c906288	0.017625108
77	0xbd29532c	-0.041339085
78	0xbcafc0a8	-0.02145417
79	0xbccd866f	-0.025088517
80	0x3d53b346	0.05168464
81	0xbcbae301	-0.022813322
82	0x3d360484	0.0444379
83	0xbd38a276	-0.04507681
84	0xbd37bbd3	-0.044856858
85	0xbd032c62	-0.03202475
86	0xbcf78a8d	-0.030217433
87	0x3c5a51c0	0.013325155
88	0x3d56cb72	0.052440114
89	0x3d35f17a	0.044419743
90	0x3d378bbf	0.044811007
91	0x3caf2fc7	0.021385087
92	0xbd37ac07	-0.044841792
93	0xbd3032bf	-0.043017145
94	0x3cb25534	0.021769144
95	0x3c65755a	0.01400503
96	0xbacb736c	-0.0015522069
97	0xbc456bc9	-0.012049624
98	0x3c6ab1c2	0.014324607
99	0xbd299498	-0.041401476
100	0xbd2da9cb	-0.042398255
101	0xbbab1a57	-0.005221646
102	0xbd040932	-0.03223533
103	0x3cdfe248	0.027329579
104	0xbd2b5bfe	-0.041835777
105	0xb9d5905a	-0.00040734076
106	0xbd342c7c	-0.043987736
107	0x3a7177e2	0.00092112843
108	0xbc9e3dbf	-0.019316552
109	0xbd2acce5	-0.04169931
110	0xbbda94a9	-0.0066705537
111	0xbcf76adc	-0.030202322
112	0xbd1ca159	-0.03823981
113	0xbbcfdca6	-0.006343442
114	0xbba23783	-0.004950465
115	0x3c55b6cc	0.01304407
116	0x3c330696	0.010926863
117	0x3d20fa19	0.03930101
118	0xbc8a454c	-0.016878746
119	0xbcd26af5	-0.025685767

fc.2.weight f4 [84, 120]
0	0xbd2979f5	-0.041376073
1	0x3d66f3a8	0.056384712
2	0xbd5b24bd	-0.053501833
3	0x3d7f5cfc	0.062344536
4	0x3c45ca50	0.012072161
5	0x3b85fefa	0.0040892335
6	0xb84d0be2	-4.8886875e-05
7	0xbd349ece	-0.04409676
8	0xbd048a14	-0.032358244
9	0xbda0745e	-0.07834695
10	0xbd969c50	-0.07354033
11	0xbab5d3da	-0.0013872341
12	0xbdb8731f	-0.090063326
13	0xbca27b19	-0.019834088
14	0xbbbef401	-0.0058274274
15	0xbd827de9	-0.06371672
16	0xbd6e9525	-0.058247704
17	0x3cc7d102	0.024391655
18	0xbd2be56d	-0.041966844
19	0x3bf3eeb9	0.0074442294
20	0xbd8df3dc	-0.06931278
21	0xbcea7a1f	-0.028622685
22	0xbd90e1e9	-0.07074339
23	0x3ce94938	0.028477296
24	0xbd0a38b7	-0.033745494
25	0x3d8be193	0.06830134
26	0xbd41982c	-0.047264263
27	0x3db9cdd3	0.09072461
28	0x3db1bce8	0.08678609
29	0xbda545eb	-0.080699764
30	0x3d8ec864	0.06971815
31	0x3d17ab49	0.037028585
32	0x3d4cfa0f	0.050043162
33	0x3d7f45cb	0.06232242
34	0x3d9bea64	0.07613066
35	0x3c0746d2	0.008256631
36	0x389a7000	7.364154e-05
37	0x3dae76e2	0.08518769
38	0xbd484735	-0.048896033
39	0xbbed7d69	-0.007247616
40	0xbd57033b	-0.052493315
41	0xbd89be96	-0.067258045
42	0x3d22f203	0.03978158
43	0xbc06e75f	-0.008233874
44	0x3b1a3e66	0.0023535728
45	0xbdbaa9d5	-0.09114424
46	0xbd58d96c	-0.052941725
47	0x3d0096ae	0.0313937
48	0xbda88839	-0.082291074
49	0xbc21cf58	-0.009876095
50	0x3d09372a	0.033499874
51	0x3da18a70	0.07887733
52	0xbdb59d8e	-0.08867942
53	0xbd2eb146	-0.04264953
54	0x3ca5639b	0.020189097
55	0xbda02310	-0.07819188
56	0x3d12cea6	0.035841607
57	0xbd60ddfb	-0.054899197
58	0xbd79568a	-0.060873546
59	0x3d9f2241	0.07770205
60	0xbbb965bd	-0.00565788
61	0x3c275de8	0.01021526
62	0xbd2f0f36	-0.042739116
63	0xbb25a3fb	-0.0025274742
64	0xbd89440d	-0.06702433
65	0xbd66bcae	-0.056332283
66	0x3cffc889	0.031223552
67	0xbcb30818	-0.021854445
68	0xbc14d607	-0.009084231
69	0x3db9d008	0.09072882
70	0x3db5f0e8	0.0888384
71	0xba3933a9	-0.0007064888
72	0x3d3b2517	0.04568967
73	0x3d87ab3c	0.06624457
74	0x3ba4f900	0.005034566
75	0x3d15aeee	0.03654378
76	0xbd20579f	-0.039146062
77	0x3da6f25c	0.08151695
78	0xbd795531	-0.06087226
79	0xbce1903e	-0.0275346
80	0xbd68a3be	-0.05679678
81	0xbd1d651e	-0.03842651
82	0x3d831ed5	0.06402365
83	0xbcea24e3	-0.028582042
84	0x3d3b147b	0.04567383
85	0xbd8aeba7	-0.06783228
86	0xbdb705a3	-0.08936622
87	0x3d760829	0.060066376
88	0x3dbb738e	0.091529
89	0xbd820620	-0.063488245
90	0x3cd52dc4	0.0260228
91	0xbd6dd147	-0.05806091
92	0x3cd913c9	0.026498692
93	0xbd6c4e2f	-0.05769175
94	0x3d363d10	0.044491827
95	0xbd35149c	-0.044209108
96	0xbda1546e	-0.07877432
97	0x3c2d768a	0.010587344
98	0xbc855f46	-0.016280781
99	0xbd5a9543	-0.053365003
100	0x3c9cc555	0.019137064
101	0xbdacb749	-0.08433396
102	0x3d10202b	0.035186928
103	0xbda9cd48	-0.082911074
104	0x3d7951aa	0.060868897
105	0xbb5c165f	-0.003358267
106	0xbda35403	-0.07975008
107	0xbdb736bc	-0.08945987
108	0x3d9fa5c4	0.07795289
109	0x3da20ee0	0.079129934
110	0x3ca949a6	0.020665001
111	0x3d79aac2	0.060953863
112	0xbc49301c	-0.012279537
113	0xbd995097	-0.074860744
114	0x3d5ad1f9	0.0534229
115	0x3d197f69	0.037475023
116	0xbd8f7b21	-0.07005907
117	0x3d84552d	0.064615585
118	0x3c8c5fac	0.017135464
119	0xbda1d9cb	-0.07902869
120	0xbd01ed85	-0.031720657
121	0xbdb841d2	-0.08996929
122	0xbe09d42c	-0.13459843
123	0xbcb298fb	-0.021801462
124	0xbc0cd397	-0.008595369
125	0xbddae585	-0.106883086
126	0x3e12ff79	0.14355268
127	0x3c897f7a	0.016784418
128	0xbc0b8d06	-0.008517509
129	0x3d16c6ba	0.036810614
130	0xbd0d927c	-0.034563527
131	0xbd96c1ee	-0.07361208
132	0x3db22d87	0.0870009
133	0x3ddb9db7	0.10723441
134	0x3de0b0f9	0.10971255
135	0xbc8b9166	-0.017037105
136	0xbd944341	-0.0723939
137	0x3d52f020	0.051498532
138	0x3ca0f289	0.0196469
139	0xbc907924	-0.01763589
140	0x3bca4574	0.0061728302
141	0x3d50a9d6	0.05094322
142	0x3cfee183	0.031113392
143	0x3d4739f7	0.048639264
144	0x3d94b0ed	0.072603084
145	0x3e0ab7b3	0.13546638
146	0xbd278897	-0.040901747
147	0x3d6715d4	0.0564173
148	0xbceed651	-0.029154928
149	0xbd6c0187	-0.057618644
150	0x3d2a2e06	0.041547798
151	0xbe151a0a	-0.14560714
152	0x3d2e5de6	0.042570017
153	0xbdaa42e7	-0.08313542
154	0x3d24885e	0.040169112
155	0x3d642632	0.05570049
156	0x3d6dee94	0.058088854
157	0xbbb37a04	-0.005477192
158	0x3cda208e	0.026626851
159	0xbd14e96c	-0.03635542
160	0x3d2ef498	0.04271373
161	0x3c6e8c6a	0.0145598445
162	0x3d57d9f8	0.052698106
163	0xbd843e06	-0.064571425
164	0x3c35acb2	0.011088537
165	0xbdb2af9a	-0.087248996
166	0xbd165417	-0.036701288
167	0xbdc079e7	-0.09398251
168	0x3da92c80	0.08260441
169	0xbd93edd4	-0.072230965
170	0xbd962b39	-0.07332463
171	0xbda118ad	-0.07866035
172	0x3c31acab	0.01084439
173	0x3d782e93	0.06059129
174	0x3d0d5721	0.03450692
175	0x3dfc85ac	0.123301834
176	0xbda362eb	-0.079778515
177	0xbdebfa75	-0.1152238
178	0x3db1a1b3	0.0867342
179	0x3cfe570a	0.031047363
180	0x3ce597cc	0.028026484
181	0xbdaa00f4	-0.08300963
182	0xbd9eb98f	-0.07750236
183	0xbcff7a51	-0.031186255
184	0xbca9f013	-0.02074436
185	0x3db0872e	0.086195335
186	0x3dc7037f	0.09717464
187	0xbdb73c63	-0.08947065
188	0xbd54da9c	-0.051966295
189	0xbdaf0b22	-0.08547045
190	0xbd0ecae4	-0.03486146
191	0xbdb5c9ee	-0.08876406
192	0x3d8655ca	0.06559332
193	0x3d998c96	0.07497518
194	0xbd8ea88f	-0.06965744
195	0x3caa39c8	0.020779505
196	0x3da7b986	0.08189683
197	0xbd281749	-0.04103783
198	0x3c986a40	0.018605351
199	0xbd6ab59d	-0.057302106
200	0x3d8eac75	0.06966487
201	0xbd7ed508	-0.06221488
202	0x3e113b1b	0.14182703
203	0xbca73bf0	-0.020414323
204	0x3da825ff	0.08210372
205	0x3d2ed44c	0.04268293
206	0xbc88396d	-0.016628945
207	0x3da1ac92	0.07894243
208	0xbd214a45	-0.03937747
209	0xbd44e012	-0.048065253
210	0x3d8ca5c2	0.06867553
211	0xbb7d7a10	-0.0038677491
212	0xbe2fe954	-0.17178851
213	0x3dad2301	0.08453942
214	0x3dac0091	0.083985455
215	0x3df88e7d	0.121365525
216	0x3ce1a4c8	0.027544394
217	0x3dc2908a	0.09500225
218	0x3c989c91	0.018629344
219	0xbd1d28dd	-0.03836905
220	0xbb9728ca	-0.0046130167
221	0xbd9975ac	-0.07493147
222	0x3dc57934	0.09642258
223	0x3df455e8	0.11930448
224	0x3d23e1ca	0.04001025
225	0xbd810d62	-0.06301381
226	0x3db1504f	0.08657896
227	0xbd8a4f2f	-0.06753384
228	0x3d01adad	0.03165977
229	0xbcfa181b	-0.030529073
230	0xbb81c36e	-0.0039600646
231	0x3d9dab3d	0.07698677
232	0x3e0a44d3	0.13502817
233	0x3df12cfe	0.1177616
234	0xbd537771	-0.05162758
235	0xbca3d24c	-0.019997738
236	0xbceefecd	-0.029174233
237	0x3d9b876f	0.07594191
238	0x3c8f6cac	0.017507873
239	0xbdb9ef64	-0.09078863
240	0x3d68b77b	0.056815606
241	0x3be49ed0	0.0069769397
242	0x3cdb10bf	0.026741384
243	0xbd5a5aee	-0.053309374
244	0xbd7f3e99	-0.062315557
245	0x3da73a2c	0.08165392
246	0x3d0610b0	0.03273076
247	0xbd844055	-0.06457583
248	0xbcbe2e5a	-0.023215462
249	0x3d70dee8	0.05880633
250	0x3d482ee0	0.04887283
251	0x3ca2cc3b	0.019872775
252	0x3d9939bb	0.07481714
253	0xbcb16e3c	-0.02165901
254	0x3cc94dac	0.02457317
255	0xbd2fa6ed	-0.042883802

fc.2.bias f4 [84]
0	0xbd3cf202	-0.046129234
1	0x3d956295	0.07294194
2	0x3da50339	0.08057255
3	0x3c524a96	0.0128351655
4	0xbcdda616	-0.027056735
5	0x3d65e82e	0.056129627
6	0x3d51a1ed	0.051179815
7	0xbd3bd27e	-0.045855038
8	0x3d1f299f	0.038858052
9	0x3c6326d4	0.013864238
10	0xbc57071a	-0.013124252
11	0xbcbec138	-0.023285493
12	0xbda4f5b5	-0.080546774
13	0x3cc669df	0.024220405
14	0x3ce7d035	0.028297523
15	0xbd831d34	-0.064020544
16	0x3c97b700	0.018519878
17	0x3cdc5d3b	0.026899925
18	0x3d716bee	0.05894082
19	0x3c8744f8	0.016512379
20	0xbdb20b98	-0.086936176
21	0xbc8ddd65	-0.017317483
22	0xbc834df8	-0.01602839
23	0xbd7e7c90	-0.06213051
24	0xbbc4a1c4	-0.0060007293
25	0x3c0f1d19	0.008734965
26	0xbd36b844	-0.044609323
27	0xbb285f89	-0.002569171
28	0xbd98af6c	-0.07455334
29	0xbd73ca8a	-0.05951933
30	0x3d05e01a	0.032684423
31	0x3cc93c8a	0.024565
32	0x3db37fac	0.08764586
33	0xbd8eecbf	-0.069787495
34	0x3d41c86e	0.047310285
35	0x3c7eeb5e	0.015559046
36	0x3dc3c874	0.09559718
37	0xbd0dfa87	-0.03466275
38	0xbd8e1437	-0.069374494
39	0xbd5f5d32	-0.054532237
40	0xbced138a	-0.028939981
41	0xbd876f24	-0.06612995
42	0xbda4b50d	-0.08042345
43	0x3d831bbe	0.06401776
44	0xbd4521c1	-0.048127893
45	0x3d88cc3f	0.06679582
46	0x3d683653	0.056692433
47	0x3c8e2865	0.017353246
48	0xbd9e0bc5	-0.077170886
49	0xbd4fb430	-0.05070895
50	0x3d9db23b	0.077000104
51	0x3d40a3b3	0.047031116
52	0x3db9258a	0.09040363
53	0xbd2a1de7	-0.041532423
54	0x3d4ec812	0.05048377
55	0x3d02b395	0.031909544
56	0x3da3f025	0.08004788
57	0x3b1921ff	0.002336621
58	0xbc8ef043	-0.01744855
59	0xbbf7c4df	-0.0075613107
60	0xbd6174a5	-0.05504288
61	0xbc8610bb	-0.0163654
62	0x3b2eb08c	0.0026655523
63	0xbcef6c1f	-0.02922636
64	0xbb307116	-0.0026922873
65	0xbdb9dcad	-0.09075294
66	0xbd29a9b4	-0.041421607
67	0x3dc874f6	0.097879335
68	0xbd2c2771	-0.0420298
69	0xbcd6e640	-0.026232839
70	0x3cd1ffbc	0.025634639
71	0x3d21afb7	0.039474215
72	0xbcf6fdc3	-0.0301503
73	0xbd5f1b95	-0.054469664
74	0xbda09f3e	-0.07842873
75	0xbd76a963	-0.060220134
76	0xbc95f220	-0.01830393
77	0x3c9f8209	0.019471185
78	0xbba5c41a	-0.0050587775
79	0x3d06f86e	0.032951765
80	0x3c4d741e	0.0125398915
81	0xbc1d885f	-0.009615033
82	0x3d304947	0.043038633
83	0xbda6c817	-0.08143633

fc.4.weight f4 [10, 84]
0	0x3c44f7ff	0.0120220175
1	0x3e41829a	0.18897477
2	0x3e1b0e92	0.15142277
3	0xbda58888	-0.08082682
4	0xbdfb631e	-0.122747645
5	0xbcce53e2	-0.025186483
6	0x3ceae91d	0.02867561
7	0xbcec7bbc	-0.028867595
8	0x3de7e952	0.11323799
9	0xbe11a8c6	-0.14224538
10	0xbcea7044	-0.028617986
11	0xbe394d2f	-0.1809585
12	0xbda6e662	-0.08149411
13	0xbd255f4b	-0.04037408
14	0xbe01b9e1	-0.12668563
15	0x3d754b10	0.05988604
16	0xbc2b2a35	-0.010447075
17	0x3dc86c5c	0.09786293
18	0x3d33811f	0.04382431
19	0x3dd05cc8	0.101739466
20	0x3d0fecc3	0.035137903
21	0xbd035fcb	-0.032073777
22	0xbe05c552	-0.13063553
23	0x3d86f981	0.06590558
24	0x3e11769b	0.142054
25	0xbd8a87ac	-0.067641586
26	0xbdd5057c	-0.10401437
27	0x3aa1ff4c	0.001235941
28	0xbda32723	-0.07966449
29	0x3e41a9e7	0.18912469
30	0xbae3a7b3	-0.0017368704
31	0xbdd2b442	-0.10288288
32	0x3e120da5	0.14263017
33	0xbc6f2791	-0.014596836
34	0xbd79152e	-0.060811214
35	0x3e084108	0.13306057
36	0x3cf234c2	0.029566173
37	0x3dc4ab70	0.096030116
38	0x3d919d4f	0.07110082
39	0xbe0d061d	-0.13771863
40	0xbd439c5a	-0.04775653
41	0xbdd4c5f0	-0.10389316
42	0xbdde12f8	-0.10843462
43	0xbbee63b0	-0.0072750673
44	0xbd95f3ed	-0.07321916
45	0x3dd17509	0.10227401
46	0xbe932071	-0.28735688
47	0xbdec065d	-0.11524651
48	0x3dd2b58d	0.10288534
49	0x3ddbc046	0.107300326
50	0xbd5c68ef	-0.05381101
51	0x3dbe29aa	0.092852905
52	0xbded95c9	-0.11600835
53	0x3d6dd1ba	0.05806134
54	0x3e3dafb3	0.18524055
55	0xbcc1ea1e	-0.023671206
56	0x3dcef313	0.101049565
57	0xbd732bc6	-0.059367917
58	0xbd86d434	-0.06583443
59	0x3e5f224f	0.21790431
60	0x3ddc25bd	0.107493855
61	0x3d888f94	0.0666801
62	0x3db2cdb6	0.087306425
63	0x3d605c53	0.054775547
64	0xbe1d5439	-0.1536416
65	0x3dd65247	0.10464912
66	0x3d962f6b	0.07333263
67	0x3c985d67	0.018599225
68	0xbe809b56	-0.25118512
69	0x3dbb4f37	0.091459684
70	0x3e8f581f	0.2799692
71	0x3d1c9b77	0.0382342
72	0xbca14eaa	-0.01969083
73	0x3c0ce6a0	0.008599907
74	0x3ded0714	0.11573616
75	0x3d53e388	0.051730663
76	0xbcfc184d	-0.030773306
77	0xbdb32b93	-0.087485455
78	0xbe68b855	-0.22726567
79	0xbd720b31	-0.059092704
80	0xbdbc7f1b	-0.09203931
81	0x3d51366d	0.051077295
82	0xbd77a52e	-0.060460262
83	0xbe361efa	-0.17785254
84	0x3d8f1075	0.06985561
85	0xbdc81666	-0.09769897
86	0x3d9c9ab3	0.07646694
87	0x3e1e56b2	0.15462759
88	0x3e6cdd50	0.23131299
89	0x3d3b2bf5	0.045696218
90	0x3dd23005	0.10263065
91	0x3e0c6b2a	0.13712755
92	0xbde67e8c	-0.11254606
93	0xbe668f6e	-0.22515652
94	0xbd0416de	-0.03224837
95	0x3e981ad4	0.29707968
96	0x3d0a2644	0.0337279
97	0x3c6d748d	0.01449312
98	0xbe07adf8	-0.13249958
99	0x3d90e336	0.07074587
100	0x3c032203	0.0080037145
101	0xbdd0aa5d	-0.10188744
102	0x3d5615fe	0.052267067
103	0x3dc92951	0.098223336
104	0x3dfa5511	0.122232564
105	0x3cf44bde	0.029821333
106	0xbc4d9935	-0.012548734
107	0xbdc7c714	-0.09754768
108	0x3dc80764	0.09767035
109	0xbd7cfcb5	-0.061764438
110	0xbe0fe074	-0.14050466
111	0x3ca0f836	0.019649606
112	0xbdc80e6f	-0.09768378
113	0xbe46b523	-0.19405036
114	0xbd41cdec	-0.047315523
115	0xbc7ab462	-0.015301796
116	0x3e13caa5	0.14432772
117	0x3d06ea29	0.032938156
118	0x3d0a8f0f	0.033827838
119	0x3d0c21ef	0.03421205
120	0xbe27a8b6	-0.16372952
121	0xbdc9b95e	-0.09849809
122	0x3d8160b2	0.06317271
123	0x3e0d655b	0.13808195
124	0x3d839227	0.06424361
125	0x3e10808e	0.1411154
126	0x3d2e923d	0.042619932
127	0xbd9d4cc7	-0.0768066
128	0x3d2fd31f	0.04292595
129	0xbdce35a4	-0.10068825
130	0x3d48febe	0.049071066
131	0xbe27bc86	-0.1638051
132	0xbcaeedeb	-0.021353683
133	0xbdbebe6a	-0.09313662
134	0xbc7f269b	-0.015573169
135	0x3c93d909	0.018047826
136	0xbd154c53	-0.03644974
137	0xbd5e5f3d	-0.054290045
138	0x3da48a38	0.08034176
139	0x3daa7e4b	0.0832487
140	0x3e8ce14a	0.27515632
141	0x3d9ab011	0.07553113
142	0x3e46b255	0.19403966
143	0xbe3bc559	-0.18337001
144	0x3e052f4c	0.13006324
145	0x3be88aee	0.00709664
146	0xbe087019	-0.13324012
147	0x3dd1115b	0.102083884
148	0x3e4a6a98	0.19767225
149	0xbd95610c	-0.07293901
150	0xbd826e53	-0.06368699
151	0xbe6ebdfd	-0.23314662
152	0xbc7b2df4	-0.01533078
153	0x3d8d2adf	0.06892943
154	0xbb93d5f3	-0.0045115887
155	0x3dffcf2e	0.12490688
156	0x3e1654bd	0.14680763
157	0xbdc8f9ee	-0.09813295
158	0xbd13cb96	-0.036082827
159	0x3e107cfa	0.14110175
160	0x3e148373	0.14503269
161	0xbdbfa97b	-0.09358498
162	0xbd5aa52a	-0.05338017
163	0x3df1c30e	0.11804782
164	0xbcb1f1d0	-0.02172175
165	0xbd8d3b4e	-0.06896077
166	0xbc2e8e94	-0.01065411
167	0x3e895605	0.2682344
168	0x3dd10225	0.10205487
169	0xbe77821c	-0.24170727
170	0xbd9e2ca4	-0.07723358
171	0xbe49303e	-0.19647309
172	0x3ea2bfa7	0.31786844
173	0xbc9f05e6	-0.019411992
174	0xbe12e85a	-0.14346448
175	0x3ce726b4	0.028216697
176	0xbc042274	-0.008064855
177	0xbd18b71f	-0.037284013
178	0xbe1e51e2	-0.15460923
179	0xbd9afa5f	-0.07567286
180	0xbdcc5c31	-0.099785216
181	0xbe7a930d	-0.24470158
182	0xbe00bf33	-0.12572937
183	0xbbcef951	-0.006316342
184	0x3d9954be	0.074868664
185	0xbcd1f7de	-0.025630888
186	0x3da38d80	0.07985973
187	0x3d9b4339	0.07581181
188	0xbe6057e6	-0.2190853
189	0xbd820caa	-0.06350072
190	0x3d976a78	0.07393354
191	0xbcbef7ea	-0.023311574
192	0x3e0c63c6	0.13709936
193	0x3c8a5e11	0.016890557
194	0x3e6d5d17	0.23180042
195	0xbd85b10b	-0.06527909
196	0xbe066c91	-0.13127352
197	0x3db041b7	0.08606284
198	0xbdcb557c	-0.09928414
199	0x3dddd7aa	0.1083215
200	0x3e209f8b	0.15685861
201	0x3e3b7e0a	0.18309799
202	0x3dafb527	0.08579474
203	0xbcebbc65	-0.028776357
204	0x3dbf834a	0.09351213
205	0xbd56e30d	-0.052462626
206	0xbe09ed1c	-0.13469356
207	0xbe4150b0	-0.18878436
208	0xbe4ef86c	-0.20211953
209	0x3e139d42	0.14415458
210	0xbd80227d	-0.06256578
211	0xbda34359	-0.0797183
212	0x3dd036b8	0.10166687
213	0xbc2e659b	-0.010644342
214	0x3e6de74a	0.23232761
215	0xbe164886	-0.14676103
216	0xbcae907b	-0.021309128
217	0xbd242935	-0.04007836
218	0xbd564010	-0.05230719
219	0x3e0c88cf	0.13724063
220	0x3e21bb16	0.15794024
221	0xbd5c2898	-0.05374965
222	0x3db45336	0.08804934
223	0x3dd5ece5	0.10445575
224	0x3e1c2949	0.15250124
225	0xbdd681c1	-0.10473967
226	0x3d3563e7	0.044284727
227	0x3e4ebbc8	0.2018882
228	0xbdbbc3c7	-0.09168201
229	0x3d04c6b2	0.032416053
230	0x3d843bbe	0.064567074
231	0xbd820f46	-0.063505694
232	0xbd7d0958	-0.06177649
233	0x3d24ac46	0.040203355
234	0x3e83b05a	0.25720483
235	0xbb0035ac	-0.001956324
236	0x3ddd4995	0.1080505
237	0xbd6b506a	-0.057449736
238	0x3ca6f0c4	0.020378478
239	0xbd3962ea	-0.045260347
240	0xbe295e4a	-0.16539875
241	0x3d845942	0.06462337
242	0xbdfd195e	-0.12358354
243	0xbd4e34d4	-0.05034335
244	0xbe1c1d54	-0.15245563
245	0xb983e24b	-0.00025154868
246	0xbda8fae1	-0.08250976
247	0xbdc36340	-0.09540415
248	0xbd3942e2	-0.0452298
249	0x3d899bd6	0.067191765
250	0x3db64982	0.08900739
251	0x3d3110f3	0.043229055
252	0x3a4e6689	0.00078735553
253	0x3dee16d2	0.116254464
254	0x3d688ec5	0.05677678
255	0xbbc81d72	-0.006107026

fc.4.bias f4 [10]
0	0x3d7bf7ad	0.0615155
1	0xbcb1e330	-0.021714777
2	0xbd155b63	-0.036464106
3	0xbcbc8798	-0.023013875
4	0xbdbf5665	-0.0934265
5	0xbd6c33c4	-0.057666555
6	0x3ba6866f	0.0050819437
7	0x3ccb9266	0.024850082
8	0x3d663c1e	0.056209676
9	0x3be3617a	0.0069391103
